STGCN_Best_BRC(
  (stconv_block1): STConv(
    (_temporal_conv1): TemporalConv(
      (conv_1): Conv2d(14, 64, kernel_size=(1, 9), stride=(1, 1))
      (conv_2): Conv2d(14, 64, kernel_size=(1, 9), stride=(1, 1))
      (conv_3): Conv2d(14, 64, kernel_size=(1, 9), stride=(1, 1))
    )
    (_graph_conv): ChebConv(64, 64, K=4, normalization=sym)
    (_temporal_conv2): TemporalConv(
      (conv_1): Conv2d(64, 128, kernel_size=(1, 9), stride=(1, 1))
      (conv_2): Conv2d(64, 128, kernel_size=(1, 9), stride=(1, 1))
      (conv_3): Conv2d(64, 128, kernel_size=(1, 9), stride=(1, 1))
    )
    (_batch_norm): BatchNorm2d(320, eps=1e-05, momentum=0.1, affine=True, track_running_stats=True)
  )
  (stconv_block2): STConv(
    (_temporal_conv1): TemporalConv(
      (conv_1): Conv2d(128, 256, kernel_size=(1, 7), stride=(1, 1))
      (conv_2): Conv2d(128, 256, kernel_size=(1, 7), stride=(1, 1))
      (conv_3): Conv2d(128, 256, kernel_size=(1, 7), stride=(1, 1))
    )
    (_graph_conv): ChebConv(256, 256, K=4, normalization=sym)
    (_temporal_conv2): TemporalConv(
      (conv_1): Conv2d(256, 64, kernel_size=(1, 7), stride=(1, 1))
      (conv_2): Conv2d(256, 64, kernel_size=(1, 7), stride=(1, 1))
      (conv_3): Conv2d(256, 64, kernel_size=(1, 7), stride=(1, 1))
    )
    (_batch_norm): BatchNorm2d(320, eps=1e-05, momentum=0.1, affine=True, track_running_stats=True)
  )
  (stconv_block3): STConv(
    (_temporal_conv1): TemporalConv(
      (conv_1): Conv2d(64, 32, kernel_size=(1, 5), stride=(1, 1))
      (conv_2): Conv2d(64, 32, kernel_size=(1, 5), stride=(1, 1))
      (conv_3): Conv2d(64, 32, kernel_size=(1, 5), stride=(1, 1))
    )
    (_graph_conv): ChebConv(32, 32, K=3, normalization=sym)
    (_temporal_conv2): TemporalConv(
      (conv_1): Conv2d(32, 16, kernel_size=(1, 5), stride=(1, 1))
      (conv_2): Conv2d(32, 16, kernel_size=(1, 5), stride=(1, 1))
      (conv_3): Conv2d(32, 16, kernel_size=(1, 5), stride=(1, 1))
    )
    (_batch_norm): BatchNorm2d(320, eps=1e-05, momentum=0.1, affine=True, track_running_stats=True)
  )
  (fc): Linear(in_features=16, out_features=3, bias=True)
)
1,601,571 total parameters.
1,601,571 training parameters.
Training started ... 
Saved Best Model @ Epoch: 000
Epoch 1/300, Train_Loss: 0.6457320012205796, Val_Loss: 0.6252009707528192
Saved Best Model @ Epoch: 001
Epoch 2/300, Train_Loss: 0.6319932600291227, Val_Loss: 0.6198325970688382
Saved Best Model @ Epoch: 002
Epoch 3/300, Train_Loss: 0.4323713180901621, Val_Loss: 0.3981101621647139
…
